…
2023-10-19 05:01:36 | INFO | fairseq.tasks.language_modeling | dictionary: 51200 types
Load Pre-trained GPT from /data/zyu401_data/anirudh/longmem_data/LongMem_public_checkpoints/gpt2_medium/checkpoint_last.pt
2023-10-19 05:01:49 | INFO | fairseq.tasks.gpt | dictionary: 51200 types
NewGPT retrieval Layer Index 17
Reload from pretrained model layer
set up external memory
chunk size 4
put index from cpu to gpu 0
put done
2023-10-19 05:01:59 | INFO | fairseq_cli.train | TransformerLanguageModelSideNet(
  (decoder): TransformerDecoderSideNet(
    (dropout_module): FairseqDropout()
    (embed_tokens): Embedding(51200, 1024, padding_idx=1)
    (layers): ModuleList(
      (0-7): 8 x TransformerDecoderSideNetLayer(
        (dropout_module): FairseqDropout()
        (self_attn): MultiheadAttention(
          (dropout_module): FairseqDropout()
          (k_proj): Linear(in_features=1024, out_features=1024, bias=False)
          (v_proj): Linear(in_features=1024, out_features=1024, bias=False)
          (q_proj): Linear(in_features=1024, out_features=1024, bias=False)
          (out_proj): Linear(in_features=1024, out_features=1024, bias=False)
        )
        (fc1): Linear(in_features=1024, out_features=4096, bias=True)
        (fc2): Linear(in_features=4096, out_features=1024, bias=True)
        (ln_1): LayerNorm((1024,), eps=1e-05, elementwise_affine=True)
      )
      (8): TransformerDecoderSideNetLayer(
        (dropout_module): FairseqDropout()
        (self_attn): JointMultiheadAttentionWeightedSum(
          (dropout_module): FairseqDropout()
          (k_proj): Linear(in_features=1024, out_features=1024, bias=False)
          (v_proj): Linear(in_features=1024, out_features=1024, bias=False)
          (q_proj): Linear(in_features=1024, out_features=1024, bias=False)
          (out_proj): Linear(in_features=1024, out_features=1024, bias=False)
        )
        (fc1): Linear(in_features=1024, out_features=4096, bias=True)
        (fc2): Linear(in_features=4096, out_features=1024, bias=True)
        (ln_1): LayerNorm((1024,), eps=1e-05, elementwise_affine=True)
      )
      (9-11): 3 x TransformerDecoderSideNetLayer(
        (dropout_module): FairseqDropout()
        (self_attn): MultiheadAttention(
          (dropout_module): FairseqDropout()
          (k_proj): Linear(in_features=1024, out_features=1024, bias=False)
          (v_proj): Linear(in_features=1024, out_features=1024, bias=False)
          (q_proj): Linear(in_features=1024, out_features=1024, bias=False)
          (out_proj): Linear(in_features=1024, out_features=1024, bias=False)
        )
        (fc1): Linear(in_features=1024, out_features=4096, bias=True)
        (fc2): Linear(in_features=4096, out_features=1024, bias=True)
        (ln_1): LayerNorm((1024,), eps=1e-05, elementwise_affine=True)
      )
    )
    (layer_norm): LayerNorm((1024,), eps=1e-05, elementwise_affine=True)
    (pretrained_model): NewGPTLanguageModel(
      (decoder): NewGPTDecoder(
        (model): NewGPTForCausalLM(
          (transformer): NewGPTModel(
            (wte): Embedding(51200, 1024)
            (drop): Dropout(p=0.1, inplace=False)
            (h): ModuleList(
              (0-23): 24 x NewGPTBlock(
                (ln_1): LayerNorm((1024,), eps=1e-06, elementwise_affine=True)
                (attn): NewGPTAttention(
                  (resid_dropout): Dropout(p=0.1, inplace=False)
                  (q_proj): Linear(in_features=1024, out_features=1024, bias=False)
                  (k_proj): Linear(in_features=1024, out_features=1024, bias=False)
                  (v_proj): Linear(in_features=1024, out_features=1024, bias=False)
                  (out_proj): Linear(in_features=1024, out_features=1024, bias=False)
                )
                (mlp): NewGPTMLP(
                  (fc_in): Linear(in_features=1024, out_features=4096, bias=True)
                  (fc_out): Linear(in_features=4096, out_features=1024, bias=True)
                  (act): NewGELUActivation()
                  (dropout): Dropout(p=0.1, inplace=False)
                )
              )
            )
            (ln_f): LayerNorm((1024,), eps=1e-06, elementwise_affine=True)
          )
          (lm_head): Linear(in_features=1024, out_features=51200, bias=True)
        )
      )
    )
    (output_projection): Linear(in_features=1024, out_features=51200, bias=False)
  )
)
2023-10-19 05:01:59 | INFO | fairseq_cli.train | task: LanguageModelingTask
2023-10-19 05:01:59 | INFO | fairseq_cli.train | model: TransformerLanguageModelSideNet
2023-10-19 05:01:59 | INFO | fairseq_cli.train | criterion: CrossEntropyCriterion
2023-10-19 05:01:59 | INFO | fairseq_cli.train | num. shared model params: 558,155,792 (num. trained: 151,083,024)
…
